…
Testing accuracy ->  [0.7980081125070121, 0.7129771113395691]
Performed better during validation and training

----------------------------------------------------------------------------------------------------------------------------------------
Log 4
----------------------------------------------------------------------------------------------------------------------------------------
 
Model: "model_1"
_________________________________________________________________
Layer (type)                 Output Shape              Param #   
=================================================================
input_1 (InputLayer)         (None, 1, 96, 1366)       0         
_________________________________________________________________
conv1 (Conv2D)               (None, 16, 96, 1366)      80        
_________________________________________________________________
bn1 (BatchNormalization)     (None, 16, 96, 1366)      64        
_________________________________________________________________
pool1 (MaxPooling2D)         (None, 16, 24, 341)       0         
_________________________________________________________________
dropout1 (AlphaDropout)      (None, 16, 24, 341)       0         
_________________________________________________________________
conv2 (Conv2D)               (None, 32, 24, 341)       2080      
_________________________________________________________________
bn2 (BatchNormalization)     (None, 32, 24, 341)       128       
_________________________________________________________________
pool2 (MaxPooling2D)         (None, 32, 6, 85)         0         
_________________________________________________________________
dropout2 (AlphaDropout)      (None, 32, 6, 85)         0         
_________________________________________________________________
conv3 (Conv2D)               (None, 32, 6, 85)         9248      
_________________________________________________________________
bn3 (BatchNormalization)     (None, 32, 6, 85)         128       
_________________________________________________________________
pool3 (MaxPooling2D)         (None, 32, 3, 42)         0         
_________________________________________________________________
dropout3 (AlphaDropout)      (None, 32, 3, 42)         0         
_________________________________________________________________
permute_1 (Permute)          (None, 42, 32, 3)         0         
_________________________________________________________________
reshape_1 (Reshape)          (None, 126, 32)           0         
_________________________________________________________________
gru1 (GRU)                   (None, 126, 16)           2352      
_________________________________________________________________
gru2 (GRU)                   (None, 16)                1584      
_________________________________________________________________
final_drop (AlphaDropout)    (None, 16)                0         
_________________________________________________________________
hidden1 (Dense)              (None, 128)               2176      
_________________________________________________________________
output (Dense)               (None, 4)                 516       
=================================================================
Total params: 18,356
Trainable params: 18,196
Non-trainable params: 160
_________________________________________________________________

# Conv block 1
    x = layers.Convolution2D(16,(2, 2), border_mode='same', name='conv1',activation= 'selu', trainable=True,kernel_initializer='lecun_normal')(melgram_input)
    x = layers.BatchNormalization(axis=channel_axis, mode=0, name='bn1', trainable=True)(x)
…
    'batch_size':128,

}

Testing accuracy ->  [0.8126908710894694, 0.7076336145401001]

----------------------------------------------------------------------------------------------------------------------------------------
Log 5
----------------------------------------------------------------------------------------------------------------------------------------
 Model: "model_1"
_________________________________________________________________
Layer (type)                 Output Shape              Param #   
=================================================================
input_1 (InputLayer)         (None, 1, 96, 1366)       0         
_________________________________________________________________
conv1 (Conv2D)               (None, 16, 96, 1366)      80        
_________________________________________________________________
bn1 (BatchNormalization)     (None, 16, 96, 1366)      64        
_________________________________________________________________
pool1 (MaxPooling2D)         (None, 16, 24, 341)       0         
_________________________________________________________________
dropout1 (AlphaDropout)      (None, 16, 24, 341)       0         
_________________________________________________________________
conv2 (Conv2D)               (None, 32, 24, 341)       2080      
_________________________________________________________________
bn2 (BatchNormalization)     (None, 32, 24, 341)       128       
_________________________________________________________________
pool2 (MaxPooling2D)         (None, 32, 6, 85)         0         
_________________________________________________________________
dropout2 (AlphaDropout)      (None, 32, 6, 85)         0         
_________________________________________________________________
conv3 (Conv2D)               (None, 64, 6, 85)         18496     
_________________________________________________________________
bn3 (BatchNormalization)     (None, 64, 6, 85)         256       
_________________________________________________________________
pool3 (MaxPooling2D)         (None, 64, 2, 28)         0         
_________________________________________________________________
dropout3 (AlphaDropout)      (None, 64, 2, 28)         0         
_________________________________________________________________
permute_1 (Permute)          (None, 28, 64, 2)         0         
_________________________________________________________________
reshape_1 (Reshape)          (None, 56, 64)            0         
_________________________________________________________________
gru1 (GRU)                   (None, 56, 16)            3888      
_________________________________________________________________
gru2 (GRU)                   (None, 16)                1584      
_________________________________________________________________
final_drop (AlphaDropout)    (None, 16)                0         
_________________________________________________________________
hidden1 (Dense)              (None, 128)               2176      
_________________________________________________________________
output (Dense)               (None, 4)                 516       
=================================================================
Total params: 29,268
Trainable params: 29,044
Non-trainable params: 224
_________________________________________________________________

# Conv block 1
    x = layers.Convolution2D(16,(2, 2), border_mode='same', name='conv1',activation= 'selu', trainable=True,kernel_initializer='lecun_normal')(melgram_input)
    x = layers.BatchNormalization(axis=channel_axis, mode=0, name='bn1', trainable=True)(x)
…
